…
                 dispersion : False
              division_mode : vertical
                     epochs : 10
                    epsilon : 0.01
                  lr_active : 0.01
                  lr_attack : 0.01
            lr_attack_model : 0.1
                 lr_passive : 0.01
                num_passive : 4
                        our : False
               padding_mode : False
                      round : 0
           set_attack_epoch : False
                     simple : False
                       tsne : False
                    use_emb : False
Passive Model Sequential(
  (0): Flatten_input()
  (1): Linear(in_features=196, out_features=196, bias=True)
  (2): BatchNorm1d(196, eps=1e-05, momentum=0.1, affine=True, track_running_stats=True)
  (3): ReLU()
)
Passive Model Sequential(
  (0): Flatten_input()
  (1): Linear(in_features=196, out_features=196, bias=True)
  (2): BatchNorm1d(196, eps=1e-05, momentum=0.1, affine=True, track_running_stats=True)
  (3): ReLU()
)
Passive Model Sequential(
  (0): Flatten_input()
  (1): Linear(in_features=196, out_features=196, bias=True)
  (2): BatchNorm1d(196, eps=1e-05, momentum=0.1, affine=True, track_running_stats=True)
  (3): ReLU()
)
Passive Model Sequential(
  (0): Flatten_input()
  (1): Linear(in_features=196, out_features=196, bias=True)
  (2): BatchNorm1d(196, eps=1e-05, momentum=0.1, affine=True, track_running_stats=True)
  (3): ReLU()
)
Active Model Sequential(
  (0): Dropout(p=0.5, inplace=False)
  (1): Linear(in_features=784, out_features=10, bias=True)
)
Finish processing dataset.
Attacker: reconstruction
Attack Runtime: 0:0:532 (ns)
Epoch:1/10, Step:100    Loss: 2.118019
Attack Runtime: 0:0:641 (ns)
Epoch:1/10, Step:200    Loss: 1.955570
Attack Runtime: 0:0:906 (ns)
Epoch:1/10, Step:300    Loss: 1.917452
Attack Runtime: 0:0:787 (ns)
Epoch:1/10, Step:400    Loss: 1.859024
Attack Runtime: 0:0:567 (ns)
Epoch:1/10, Step:469    Loss: 1.856784
Initialize reconstruction model.
Reconstruction Model Sequential(
  (0): Flatten()
  (1): Dropout(p=0.5, inplace=False)
  (2): Linear(in_features=196, out_features=10, bias=True)
  (3): BatchNorm1d(10, eps=1e-05, momentum=0.1, affine=True, track_running_stats=True)
  (4): Softmax(dim=1)
)
Reconstruction Model Sequential(
  (0): Flatten()
  (1): Dropout(p=0.5, inplace=False)
  (2): Linear(in_features=196, out_features=10, bias=True)
  (3): BatchNorm1d(10, eps=1e-05, momentum=0.1, affine=True, track_running_stats=True)
  (4): Softmax(dim=1)
)
Reconstruction Model Sequential(
  (0): Flatten()
  (1): Dropout(p=0.5, inplace=False)
  (2): Linear(in_features=196, out_features=10, bias=True)
  (3): BatchNorm1d(10, eps=1e-05, momentum=0.1, affine=True, track_running_stats=True)
  (4): Softmax(dim=1)
)
Reconstruction Model Sequential(
  (0): Flatten()
  (1): Dropout(p=0.5, inplace=False)
  (2): Linear(in_features=196, out_features=10, bias=True)
  (3): BatchNorm1d(10, eps=1e-05, momentum=0.1, affine=True, track_running_stats=True)
  (4): Softmax(dim=1)
)
Average Attack Accuracy of Passive 0 (each epoch): 21.23%
Average Attack Accuracy of Passive 1 (each epoch): 6.30%
Average Attack Accuracy of Passive 2 (each epoch): 8.60%
Average Attack Accuracy of Passive 3 (each epoch): 16.27%
Attack Runtime: 25712:974:900 (ns)
Train set: Average loss: 1.8057, Accuracy: 42633/60000 (71.06%)
…
