…
                 dispersion : False
              division_mode : vertical
                     epochs : 10
                    epsilon : 0.01
                  lr_active : 0.01
                  lr_attack : 0.01
            lr_attack_model : 0.1
                 lr_passive : 0.01
                num_passive : 4
                        our : True
               padding_mode : False
                      round : 0
           set_attack_epoch : False
                     simple : False
                       tsne : False
                    use_emb : False
Passive Model Sequential(
  (0): Flatten_input()
  (1): Linear(in_features=196, out_features=196, bias=True)
  (2): BatchNorm1d(196, eps=1e-05, momentum=0.1, affine=True, track_running_stats=True)
  (3): ReLU()
)
Passive Model Sequential(
  (0): Flatten_input()
  (1): Linear(in_features=196, out_features=196, bias=True)
  (2): BatchNorm1d(196, eps=1e-05, momentum=0.1, affine=True, track_running_stats=True)
  (3): ReLU()
)
Passive Model Sequential(
  (0): Flatten_input()
  (1): Linear(in_features=196, out_features=196, bias=True)
  (2): BatchNorm1d(196, eps=1e-05, momentum=0.1, affine=True, track_running_stats=True)
  (3): ReLU()
)
Passive Model Sequential(
  (0): Flatten_input()
  (1): Linear(in_features=196, out_features=196, bias=True)
  (2): BatchNorm1d(196, eps=1e-05, momentum=0.1, affine=True, track_running_stats=True)
  (3): ReLU()
)
Active Model Sequential(
  (0): Dropout(p=0.5, inplace=False)
  (1): Linear(in_features=784, out_features=10, bias=True)
)
Finish processing dataset.
Attacker: reconstruction
Attack Runtime: 0:0:527 (ns)
Epoch:1/10, Step:100    Loss: 2.121885
critial_idx_list: [1, 2]
Attack Runtime: 0:0:779 (ns)
Epoch:1/10, Step:200    Loss: 1.956660
Attack Runtime: 0:0:572 (ns)
Epoch:1/10, Step:300    Loss: 1.967567
Attack Runtime: 0:0:725 (ns)
Epoch:1/10, Step:400    Loss: 1.930584
Attack Runtime: 0:0:507 (ns)
Epoch:1/10, Step:469    Loss: 1.876689
Initialize reconstruction model.
Reconstruction Model Sequential(
  (0): Flatten()
  (1): Dropout(p=0.5, inplace=False)
  (2): Linear(in_features=196, out_features=10, bias=True)
  (3): BatchNorm1d(10, eps=1e-05, momentum=0.1, affine=True, track_running_stats=True)
  (4): Softmax(dim=1)
)
Reconstruction Model Sequential(
  (0): Flatten()
  (1): Dropout(p=0.5, inplace=False)
  (2): Linear(in_features=196, out_features=10, bias=True)
  (3): BatchNorm1d(10, eps=1e-05, momentum=0.1, affine=True, track_running_stats=True)
  (4): Softmax(dim=1)
)
Reconstruction Model Sequential(
  (0): Flatten()
  (1): Dropout(p=0.5, inplace=False)
  (2): Linear(in_features=196, out_features=10, bias=True)
  (3): BatchNorm1d(10, eps=1e-05, momentum=0.1, affine=True, track_running_stats=True)
  (4): Softmax(dim=1)
)
Reconstruction Model Sequential(
  (0): Flatten()
  (1): Dropout(p=0.5, inplace=False)
  (2): Linear(in_features=196, out_features=10, bias=True)
  (3): BatchNorm1d(10, eps=1e-05, momentum=0.1, affine=True, track_running_stats=True)
  (4): Softmax(dim=1)
)
Average Attack Accuracy of Passive 0 (each epoch): 8.02%
Average Attack Accuracy of Passive 1 (each epoch): 9.81%
Average Attack Accuracy of Passive 2 (each epoch): 9.58%
Average Attack Accuracy of Passive 3 (each epoch): 4.16%
Attack Runtime: 26106:172:493 (ns)
Train set: Average loss: 1.8222, Accuracy: 42104/60000 (70.17%)
…
