…
                 dispersion : False
              division_mode : vertical
                     epochs : 10
                    epsilon : 1.0
                  lr_active : 0.01
                  lr_attack : 0.01
            lr_attack_model : 0.1
                 lr_passive : 0.01
                num_passive : 4
                        our : False
               padding_mode : False
                      round : 0
           set_attack_epoch : False
                     simple : False
                       tsne : False
                    use_emb : False
Passive Model Sequential(
  (0): Flatten_input()
  (1): Linear(in_features=196, out_features=196, bias=True)
  (2): BatchNorm1d(196, eps=1e-05, momentum=0.1, affine=True, track_running_stats=True)
  (3): ReLU()
)
Passive Model Sequential(
  (0): Flatten_input()
  (1): Linear(in_features=196, out_features=196, bias=True)
  (2): BatchNorm1d(196, eps=1e-05, momentum=0.1, affine=True, track_running_stats=True)
  (3): ReLU()
)
Passive Model Sequential(
  (0): Flatten_input()
  (1): Linear(in_features=196, out_features=196, bias=True)
  (2): BatchNorm1d(196, eps=1e-05, momentum=0.1, affine=True, track_running_stats=True)
  (3): ReLU()
)
Passive Model Sequential(
  (0): Flatten_input()
  (1): Linear(in_features=196, out_features=196, bias=True)
  (2): BatchNorm1d(196, eps=1e-05, momentum=0.1, affine=True, track_running_stats=True)
  (3): ReLU()
)
Active Model Sequential(
  (0): Dropout(p=0.5, inplace=False)
  (1): Linear(in_features=784, out_features=10, bias=True)
)
Finish processing dataset.
Attacker: completion
Attack Runtime: 0:0:411 (ns)
Epoch:1/10, Step:100    Loss: 2.139319
Attack Runtime: 0:0:545 (ns)
Epoch:1/10, Step:200    Loss: 2.011081
Attack Runtime: 0:0:531 (ns)
Epoch:1/10, Step:300    Loss: 1.949911
Attack Runtime: 0:0:513 (ns)
Epoch:1/10, Step:400    Loss: 1.832805
Attack Runtime: 0:0:809 (ns)
Epoch:1/10, Step:469    Loss: 1.781927
Completion Model Sequential(
  (0): Flatten()
  (1): Linear(in_features=196, out_features=128, bias=True)
  (2): Linear(in_features=128, out_features=10, bias=True)
)
Completion Model Sequential(
  (0): Flatten()
  (1): Linear(in_features=196, out_features=128, bias=True)
  (2): Linear(in_features=128, out_features=10, bias=True)
)
Completion Model Sequential(
  (0): Flatten()
  (1): Linear(in_features=196, out_features=128, bias=True)
  (2): Linear(in_features=128, out_features=10, bias=True)
)
Completion Model Sequential(
  (0): Flatten()
  (1): Linear(in_features=196, out_features=128, bias=True)
  (2): Linear(in_features=128, out_features=10, bias=True)
)
Average Attack Accuracy of Passive 0 (each epoch): 17.00%
Average Attack Accuracy of Passive 1 (each epoch): 26.04%
Average Attack Accuracy of Passive 2 (each epoch): 32.35%
Average Attack Accuracy of Passive 3 (each epoch): 14.74%
Attack Runtime: 1831:521:144 (ns)
Train set: Average loss: 1.7865, Accuracy: 45739/60000 (76.23%)

Attack Runtime: 0:0:907 (ns)
…
