…
                 dispersion : False
              division_mode : vertical
                     epochs : 10
                    epsilon : 0.001
                  lr_active : 0.01
                  lr_attack : 0.01
            lr_attack_model : 0.1
                 lr_passive : 0.01
                num_passive : 4
                        our : False
               padding_mode : False
                      round : 0
           set_attack_epoch : False
                     simple : False
                       tsne : False
                    use_emb : False
Passive Model Sequential(
  (0): Flatten_input()
  (1): Linear(in_features=196, out_features=196, bias=True)
  (2): BatchNorm1d(196, eps=1e-05, momentum=0.1, affine=True, track_running_stats=True)
  (3): ReLU()
)
Passive Model Sequential(
  (0): Flatten_input()
  (1): Linear(in_features=196, out_features=196, bias=True)
  (2): BatchNorm1d(196, eps=1e-05, momentum=0.1, affine=True, track_running_stats=True)
  (3): ReLU()
)
Passive Model Sequential(
  (0): Flatten_input()
  (1): Linear(in_features=196, out_features=196, bias=True)
  (2): BatchNorm1d(196, eps=1e-05, momentum=0.1, affine=True, track_running_stats=True)
  (3): ReLU()
)
Passive Model Sequential(
  (0): Flatten_input()
  (1): Linear(in_features=196, out_features=196, bias=True)
  (2): BatchNorm1d(196, eps=1e-05, momentum=0.1, affine=True, track_running_stats=True)
  (3): ReLU()
)
Active Model Sequential(
  (0): Dropout(p=0.5, inplace=False)
  (1): Linear(in_features=784, out_features=10, bias=True)
)
Finish processing dataset.
Attacker: completion
Attack Runtime: 0:0:886 (ns)
Epoch:1/10, Step:100    Loss: 2.093976
Attack Runtime: 0:0:534 (ns)
Epoch:1/10, Step:200    Loss: 1.947846
Attack Runtime: 0:0:806 (ns)
Epoch:1/10, Step:300    Loss: 1.876424
Attack Runtime: 0:0:598 (ns)
Epoch:1/10, Step:400    Loss: 1.823816
Attack Runtime: 0:0:576 (ns)
Epoch:1/10, Step:469    Loss: 1.789418
Completion Model Sequential(
  (0): Flatten()
  (1): Linear(in_features=196, out_features=128, bias=True)
  (2): Linear(in_features=128, out_features=10, bias=True)
)
Completion Model Sequential(
  (0): Flatten()
  (1): Linear(in_features=196, out_features=128, bias=True)
  (2): Linear(in_features=128, out_features=10, bias=True)
)
Completion Model Sequential(
  (0): Flatten()
  (1): Linear(in_features=196, out_features=128, bias=True)
  (2): Linear(in_features=128, out_features=10, bias=True)
)
Completion Model Sequential(
  (0): Flatten()
  (1): Linear(in_features=196, out_features=128, bias=True)
  (2): Linear(in_features=128, out_features=10, bias=True)
)
Average Attack Accuracy of Passive 0 (each epoch): 15.43%
Average Attack Accuracy of Passive 1 (each epoch): 14.38%
Average Attack Accuracy of Passive 2 (each epoch): 31.15%
Average Attack Accuracy of Passive 3 (each epoch): 11.50%
Attack Runtime: 1791:582:107 (ns)
Train set: Average loss: 1.7687, Accuracy: 44877/60000 (74.80%)

Attack Runtime: 0:0:528 (ns)
…
