…
                 dispersion : False
              division_mode : vertical
                     epochs : 10
                    epsilon : 0.1
                  lr_active : 0.01
                  lr_attack : 0.01
            lr_attack_model : 0.1
                 lr_passive : 0.01
                num_passive : 4
                        our : False
               padding_mode : False
                      round : 0
           set_attack_epoch : False
                     simple : False
                       tsne : False
                    use_emb : False
Passive Model Sequential(
  (0): Flatten_input()
  (1): Linear(in_features=196, out_features=196, bias=True)
  (2): BatchNorm1d(196, eps=1e-05, momentum=0.1, affine=True, track_running_stats=True)
  (3): ReLU()
)
Passive Model Sequential(
  (0): Flatten_input()
  (1): Linear(in_features=196, out_features=196, bias=True)
  (2): BatchNorm1d(196, eps=1e-05, momentum=0.1, affine=True, track_running_stats=True)
  (3): ReLU()
)
Passive Model Sequential(
  (0): Flatten_input()
  (1): Linear(in_features=196, out_features=196, bias=True)
  (2): BatchNorm1d(196, eps=1e-05, momentum=0.1, affine=True, track_running_stats=True)
  (3): ReLU()
)
Passive Model Sequential(
  (0): Flatten_input()
  (1): Linear(in_features=196, out_features=196, bias=True)
  (2): BatchNorm1d(196, eps=1e-05, momentum=0.1, affine=True, track_running_stats=True)
  (3): ReLU()
)
Active Model Sequential(
  (0): Dropout(p=0.5, inplace=False)
  (1): Linear(in_features=784, out_features=10, bias=True)
)
Finish processing dataset.
Attacker: completion
Attack Runtime: 0:0:679 (ns)
Epoch:1/10, Step:100    Loss: 2.107715
Attack Runtime: 0:0:624 (ns)
Epoch:1/10, Step:200    Loss: 1.952305
Attack Runtime: 0:0:725 (ns)
Epoch:1/10, Step:300    Loss: 1.906384
Attack Runtime: 0:0:566 (ns)
Epoch:1/10, Step:400    Loss: 1.862149
Attack Runtime: 0:0:750 (ns)
Epoch:1/10, Step:469    Loss: 1.818255
Completion Model Sequential(
  (0): Flatten()
  (1): Linear(in_features=196, out_features=128, bias=True)
  (2): Linear(in_features=128, out_features=10, bias=True)
)
Completion Model Sequential(
  (0): Flatten()
  (1): Linear(in_features=196, out_features=128, bias=True)
  (2): Linear(in_features=128, out_features=10, bias=True)
)
Completion Model Sequential(
  (0): Flatten()
  (1): Linear(in_features=196, out_features=128, bias=True)
  (2): Linear(in_features=128, out_features=10, bias=True)
)
Completion Model Sequential(
  (0): Flatten()
  (1): Linear(in_features=196, out_features=128, bias=True)
  (2): Linear(in_features=128, out_features=10, bias=True)
)
Average Attack Accuracy of Passive 0 (each epoch): 15.80%
Average Attack Accuracy of Passive 1 (each epoch): 35.38%
Average Attack Accuracy of Passive 2 (each epoch): 27.44%
Average Attack Accuracy of Passive 3 (each epoch): 17.41%
Attack Runtime: 1753:34:683 (ns)
Train set: Average loss: 1.8092, Accuracy: 42892/60000 (71.49%)

Attack Runtime: 0:0:847 (ns)
…
