…
	         batch_size : 256
	            dataset : mnist
	            defense : False
	        defense_all : False
	         dispersion : False
	      division_mode : vertical
	             epochs : 10
	            epsilon : 0.01
	          lr_active : 0.01
	          lr_attack : 0.01
	    lr_attack_model : 0.1
	         lr_passive : 0.1
	        num_passive : 4
	                our : False
	       padding_mode : False
	              round : 0
	   set_attack_epoch : False
	             simple : False
	               tsne : False
	            use_emb : False
Passive Model Sequential(
  (0): Flatten_input()
  (1): Linear(in_features=196, out_features=196, bias=True)
  (2): BatchNorm1d(196, eps=1e-05, momentum=0.1, affine=True, track_running_stats=True)
  (3): ReLU()
)
Passive Model Sequential(
  (0): Flatten_input()
  (1): Linear(in_features=196, out_features=196, bias=True)
  (2): BatchNorm1d(196, eps=1e-05, momentum=0.1, affine=True, track_running_stats=True)
  (3): ReLU()
)
Passive Model Sequential(
  (0): Flatten_input()
  (1): Linear(in_features=196, out_features=196, bias=True)
  (2): BatchNorm1d(196, eps=1e-05, momentum=0.1, affine=True, track_running_stats=True)
  (3): ReLU()
)
Passive Model Sequential(
  (0): Flatten_input()
  (1): Linear(in_features=196, out_features=196, bias=True)
  (2): BatchNorm1d(196, eps=1e-05, momentum=0.1, affine=True, track_running_stats=True)
  (3): ReLU()
)
Active Model Sequential(
  (0): Dropout(p=0.5, inplace=False)
  (1): Linear(in_features=784, out_features=10, bias=True)
)
Finish processing dataset.
Attacker: completion
Attack Runtime: 0:1:52 (ns)
Epoch:1/10, Step:100 	Loss: 1.920473
Attack Runtime: 0:0:561 (ns)
Epoch:1/10, Step:200 	Loss: 1.772243
Attack Runtime: 0:0:741 (ns)
Epoch:1/10, Step:235 	Loss: 1.782064
Completion Model Sequential(
  (0): Flatten()
  (1): Linear(in_features=196, out_features=128, bias=True)
  (2): Linear(in_features=128, out_features=10, bias=True)
)
Completion Model Sequential(
  (0): Flatten()
  (1): Linear(in_features=196, out_features=128, bias=True)
  (2): Linear(in_features=128, out_features=10, bias=True)
)
Completion Model Sequential(
  (0): Flatten()
  (1): Linear(in_features=196, out_features=128, bias=True)
  (2): Linear(in_features=128, out_features=10, bias=True)
)
Completion Model Sequential(
  (0): Flatten()
  (1): Linear(in_features=196, out_features=128, bias=True)
  (2): Linear(in_features=128, out_features=10, bias=True)
)
Average Attack Accuracy of Passive 0 (each epoch): 15.70%
Average Attack Accuracy of Passive 1 (each epoch): 49.18%
Average Attack Accuracy of Passive 2 (each epoch): 34.47%
Average Attack Accuracy of Passive 3 (each epoch): 18.29%
Attack Runtime: 1650:201:116 (ns)
Train set: Average loss: 1.7472, Accuracy: 49172/60000 (81.95%)

Attack Runtime: 0:1:293 (ns)
…
