…
	         batch_size : 6
	            dataset : mnist
	            defense : False
	        defense_all : False
	         dispersion : False
	      division_mode : vertical
	             epochs : 10
	            epsilon : 0.01
	          lr_active : 0.01
	          lr_attack : 0.01
	    lr_attack_model : 0.1
	         lr_passive : 0.01
	        num_passive : 4
	                our : False
	       padding_mode : False
	              round : 0
	   set_attack_epoch : False
	             simple : False
	               tsne : False
	            use_emb : False
Passive Model Sequential(
  (0): Flatten_input()
  (1): Linear(in_features=196, out_features=196, bias=True)
  (2): BatchNorm1d(196, eps=1e-05, momentum=0.1, affine=True, track_running_stats=True)
  (3): ReLU()
)
Passive Model Sequential(
  (0): Flatten_input()
  (1): Linear(in_features=196, out_features=196, bias=True)
  (2): BatchNorm1d(196, eps=1e-05, momentum=0.1, affine=True, track_running_stats=True)
  (3): ReLU()
)
Passive Model Sequential(
  (0): Flatten_input()
  (1): Linear(in_features=196, out_features=196, bias=True)
  (2): BatchNorm1d(196, eps=1e-05, momentum=0.1, affine=True, track_running_stats=True)
  (3): ReLU()
)
Passive Model Sequential(
  (0): Flatten_input()
  (1): Linear(in_features=196, out_features=196, bias=True)
  (2): BatchNorm1d(196, eps=1e-05, momentum=0.1, affine=True, track_running_stats=True)
  (3): ReLU()
)
Active Model Sequential(
  (0): Dropout(p=0.5, inplace=False)
  (1): Linear(in_features=784, out_features=10, bias=True)
)
Finish processing dataset.
Attacker: completion
Attack Runtime: 0:1:21 (ns)
Epoch:1/10, Step:100 	Loss: 2.201731
Attack Runtime: 0:0:602 (ns)
Epoch:1/10, Step:200 	Loss: 1.902348
Attack Runtime: 0:0:631 (ns)
Epoch:1/10, Step:300 	Loss: 2.076854
Attack Runtime: 0:0:470 (ns)
Epoch:1/10, Step:400 	Loss: 1.951097
Attack Runtime: 0:0:591 (ns)
Epoch:1/10, Step:500 	Loss: 1.838977
…
Epoch:1/10, Step:9200 	Loss: 1.728094
Attack Runtime: 0:0:761 (ns)
Epoch:1/10, Step:9300 	Loss: 1.569378
Attack Runtime: 0:0:571 (ns)
Epoch:1/10, Step:9400 	Loss: 1.585916
Attack Runtime: 0:0:531 (ns)
Epoch:1/10, Step:9500 	Loss: 1.650414
Attack Runtime: 0:0:491 (ns)
Epoch:1/10, Step:9600 	Loss: 1.631831
Attack Runtime: 0:0:490 (ns)
Epoch:1/10, Step:9700 	Loss: 1.462428
Attack Runtime: 0:0:581 (ns)
Epoch:1/10, Step:9800 	Loss: 1.554589
Attack Runtime: 0:0:551 (ns)
Epoch:1/10, Step:9900 	Loss: 1.779821
Attack Runtime: 0:0:591 (ns)
Epoch:1/10, Step:10000 	Loss: 1.611689
Completion Model Sequential(
  (0): Flatten()
  (1): Linear(in_features=196, out_features=128, bias=True)
  (2): Linear(in_features=128, out_features=10, bias=True)
)
Completion Model Sequential(
  (0): Flatten()
  (1): Linear(in_features=196, out_features=128, bias=True)
  (2): Linear(in_features=128, out_features=10, bias=True)
)
Completion Model Sequential(
  (0): Flatten()
  (1): Linear(in_features=196, out_features=128, bias=True)
  (2): Linear(in_features=128, out_features=10, bias=True)
)
Completion Model Sequential(
  (0): Flatten()
  (1): Linear(in_features=196, out_features=128, bias=True)
  (2): Linear(in_features=128, out_features=10, bias=True)
)
Average Attack Accuracy of Passive 0 (each epoch): 10.38%
Average Attack Accuracy of Passive 1 (each epoch): 24.16%
Average Attack Accuracy of Passive 2 (each epoch): 15.66%
Average Attack Accuracy of Passive 3 (each epoch): 10.11%
Attack Runtime: 51950:590:341 (ns)
Train set: Average loss: 1.5652, Accuracy: 54196/60000 (90.33%)

Attack Runtime: 0:0:701 (ns)
…
