…
	         batch_size : 512
	            dataset : mnist
	            defense : False
	        defense_all : False
	         dispersion : False
	      division_mode : vertical
	             epochs : 10
	            epsilon : 0.01
	          lr_active : 0.01
	          lr_attack : 0.01
	    lr_attack_model : 0.1
	         lr_passive : 0.01
	        num_passive : 4
	                our : False
	       padding_mode : False
	              round : 0
	   set_attack_epoch : False
	             simple : False
	               tsne : False
	            use_emb : False
Passive Model Sequential(
  (0): Flatten_input()
  (1): Linear(in_features=196, out_features=196, bias=True)
  (2): BatchNorm1d(196, eps=1e-05, momentum=0.1, affine=True, track_running_stats=True)
  (3): ReLU()
)
Passive Model Sequential(
  (0): Flatten_input()
  (1): Linear(in_features=196, out_features=196, bias=True)
  (2): BatchNorm1d(196, eps=1e-05, momentum=0.1, affine=True, track_running_stats=True)
  (3): ReLU()
)
Passive Model Sequential(
  (0): Flatten_input()
  (1): Linear(in_features=196, out_features=196, bias=True)
  (2): BatchNorm1d(196, eps=1e-05, momentum=0.1, affine=True, track_running_stats=True)
  (3): ReLU()
)
Passive Model Sequential(
  (0): Flatten_input()
  (1): Linear(in_features=196, out_features=196, bias=True)
  (2): BatchNorm1d(196, eps=1e-05, momentum=0.1, affine=True, track_running_stats=True)
  (3): ReLU()
)
Active Model Sequential(
  (0): Dropout(p=0.5, inplace=False)
  (1): Linear(in_features=784, out_features=10, bias=True)
)
Finish processing dataset.
Attacker: completion
Attack Runtime: 0:0:982 (ns)
Epoch:1/10, Step:100 	Loss: 2.135540
Attack Runtime: 0:0:621 (ns)
Epoch:1/10, Step:118 	Loss: 2.100456
Completion Model Sequential(
  (0): Flatten()
  (1): Linear(in_features=196, out_features=128, bias=True)
  (2): Linear(in_features=128, out_features=10, bias=True)
)
Completion Model Sequential(
  (0): Flatten()
  (1): Linear(in_features=196, out_features=128, bias=True)
  (2): Linear(in_features=128, out_features=10, bias=True)
)
Completion Model Sequential(
  (0): Flatten()
  (1): Linear(in_features=196, out_features=128, bias=True)
  (2): Linear(in_features=128, out_features=10, bias=True)
)
Completion Model Sequential(
  (0): Flatten()
  (1): Linear(in_features=196, out_features=128, bias=True)
  (2): Linear(in_features=128, out_features=10, bias=True)
)
Average Attack Accuracy of Passive 0 (each epoch): 20.53%
Average Attack Accuracy of Passive 1 (each epoch): 40.41%
Average Attack Accuracy of Passive 2 (each epoch): 23.36%
Average Attack Accuracy of Passive 3 (each epoch): 13.93%
Attack Runtime: 977:463:426 (ns)
Train set: Average loss: 2.0761, Accuracy: 33151/60000 (55.25%)

Attack Runtime: 0:0:942 (ns)
…
