…
	         batch_size : 64
	            dataset : mnist
	            defense : False
	        defense_all : False
	         dispersion : False
	      division_mode : vertical
	             epochs : 10
	            epsilon : 0.01
	          lr_active : 0.01
	          lr_attack : 0.01
	    lr_attack_model : 0.1
	         lr_passive : 0.01
	        num_passive : 4
	                our : False
	       padding_mode : False
	              round : 0
	   set_attack_epoch : False
	             simple : False
	               tsne : False
	            use_emb : False
Passive Model Sequential(
  (0): Flatten_input()
  (1): Linear(in_features=196, out_features=196, bias=True)
  (2): BatchNorm1d(196, eps=1e-05, momentum=0.1, affine=True, track_running_stats=True)
  (3): ReLU()
)
Passive Model Sequential(
  (0): Flatten_input()
  (1): Linear(in_features=196, out_features=196, bias=True)
  (2): BatchNorm1d(196, eps=1e-05, momentum=0.1, affine=True, track_running_stats=True)
  (3): ReLU()
)
Passive Model Sequential(
  (0): Flatten_input()
  (1): Linear(in_features=196, out_features=196, bias=True)
  (2): BatchNorm1d(196, eps=1e-05, momentum=0.1, affine=True, track_running_stats=True)
  (3): ReLU()
)
Passive Model Sequential(
  (0): Flatten_input()
  (1): Linear(in_features=196, out_features=196, bias=True)
  (2): BatchNorm1d(196, eps=1e-05, momentum=0.1, affine=True, track_running_stats=True)
  (3): ReLU()
)
Active Model Sequential(
  (0): Dropout(p=0.5, inplace=False)
  (1): Linear(in_features=784, out_features=10, bias=True)
)
Finish processing dataset.
Attacker: completion
Attack Runtime: 0:1:92 (ns)
Epoch:1/10, Step:100 	Loss: 2.165478
Attack Runtime: 0:0:701 (ns)
Epoch:1/10, Step:200 	Loss: 1.970059
Attack Runtime: 0:0:651 (ns)
Epoch:1/10, Step:300 	Loss: 1.957372
Attack Runtime: 0:0:812 (ns)
Epoch:1/10, Step:400 	Loss: 1.810011
Attack Runtime: 0:0:741 (ns)
Epoch:1/10, Step:500 	Loss: 1.799907
Attack Runtime: 0:0:661 (ns)
Epoch:1/10, Step:600 	Loss: 1.771934
Attack Runtime: 0:0:621 (ns)
Epoch:1/10, Step:700 	Loss: 1.822293
Attack Runtime: 0:0:741 (ns)
Epoch:1/10, Step:800 	Loss: 1.777454
Attack Runtime: 0:0:671 (ns)
Epoch:1/10, Step:900 	Loss: 1.657784
Attack Runtime: 0:0:682 (ns)
Epoch:1/10, Step:938 	Loss: 1.680753
Completion Model Sequential(
  (0): Flatten()
  (1): Linear(in_features=196, out_features=128, bias=True)
  (2): Linear(in_features=128, out_features=10, bias=True)
)
Completion Model Sequential(
  (0): Flatten()
  (1): Linear(in_features=196, out_features=128, bias=True)
  (2): Linear(in_features=128, out_features=10, bias=True)
)
Completion Model Sequential(
  (0): Flatten()
  (1): Linear(in_features=196, out_features=128, bias=True)
  (2): Linear(in_features=128, out_features=10, bias=True)
)
Completion Model Sequential(
  (0): Flatten()
  (1): Linear(in_features=196, out_features=128, bias=True)
  (2): Linear(in_features=128, out_features=10, bias=True)
)
Average Attack Accuracy of Passive 0 (each epoch): 12.90%
Average Attack Accuracy of Passive 1 (each epoch): 30.83%
Average Attack Accuracy of Passive 2 (each epoch): 33.65%
Average Attack Accuracy of Passive 3 (each epoch): 18.54%
Attack Runtime: 5383:736:790 (ns)
Train set: Average loss: 1.6992, Accuracy: 48486/60000 (80.81%)

Attack Runtime: 0:0:762 (ns)
…
