…
	         batch_size : 32
	            dataset : mnist
	            defense : False
	        defense_all : False
	         dispersion : False
	      division_mode : vertical
	             epochs : 10
	            epsilon : 0.01
	          lr_active : 0.01
	          lr_attack : 0.01
	    lr_attack_model : 0.1
	         lr_passive : 0.01
	        num_passive : 4
	                our : False
	       padding_mode : False
	              round : 0
	   set_attack_epoch : False
	             simple : False
	               tsne : False
	            use_emb : False
Passive Model Sequential(
  (0): Flatten_input()
  (1): Linear(in_features=196, out_features=196, bias=True)
  (2): BatchNorm1d(196, eps=1e-05, momentum=0.1, affine=True, track_running_stats=True)
  (3): ReLU()
)
Passive Model Sequential(
  (0): Flatten_input()
  (1): Linear(in_features=196, out_features=196, bias=True)
  (2): BatchNorm1d(196, eps=1e-05, momentum=0.1, affine=True, track_running_stats=True)
  (3): ReLU()
)
Passive Model Sequential(
  (0): Flatten_input()
  (1): Linear(in_features=196, out_features=196, bias=True)
  (2): BatchNorm1d(196, eps=1e-05, momentum=0.1, affine=True, track_running_stats=True)
  (3): ReLU()
)
Passive Model Sequential(
  (0): Flatten_input()
  (1): Linear(in_features=196, out_features=196, bias=True)
  (2): BatchNorm1d(196, eps=1e-05, momentum=0.1, affine=True, track_running_stats=True)
  (3): ReLU()
)
Active Model Sequential(
  (0): Dropout(p=0.5, inplace=False)
  (1): Linear(in_features=784, out_features=10, bias=True)
)
Finish processing dataset.
Attacker: completion
Attack Runtime: 0:1:172 (ns)
Epoch:1/10, Step:100 	Loss: 2.191946
Attack Runtime: 0:0:952 (ns)
Epoch:1/10, Step:200 	Loss: 1.978028
Attack Runtime: 0:0:591 (ns)
Epoch:1/10, Step:300 	Loss: 1.939651
Attack Runtime: 0:0:711 (ns)
Epoch:1/10, Step:400 	Loss: 1.858407
Attack Runtime: 0:0:581 (ns)
Epoch:1/10, Step:500 	Loss: 1.755431
…
Epoch:1/10, Step:1100 	Loss: 1.701397
Attack Runtime: 0:0:661 (ns)
Epoch:1/10, Step:1200 	Loss: 1.715829
Attack Runtime: 0:0:551 (ns)
Epoch:1/10, Step:1300 	Loss: 1.717090
Attack Runtime: 0:0:621 (ns)
Epoch:1/10, Step:1400 	Loss: 1.562373
Attack Runtime: 0:0:601 (ns)
Epoch:1/10, Step:1500 	Loss: 1.589010
Attack Runtime: 0:0:771 (ns)
Epoch:1/10, Step:1600 	Loss: 1.603730
Attack Runtime: 0:0:581 (ns)
Epoch:1/10, Step:1700 	Loss: 1.649541
Attack Runtime: 0:0:762 (ns)
Epoch:1/10, Step:1800 	Loss: 1.576754
Attack Runtime: 0:0:581 (ns)
Epoch:1/10, Step:1875 	Loss: 1.523513
Completion Model Sequential(
  (0): Flatten()
  (1): Linear(in_features=196, out_features=128, bias=True)
  (2): Linear(in_features=128, out_features=10, bias=True)
)
Completion Model Sequential(
  (0): Flatten()
  (1): Linear(in_features=196, out_features=128, bias=True)
  (2): Linear(in_features=128, out_features=10, bias=True)
)
Completion Model Sequential(
  (0): Flatten()
  (1): Linear(in_features=196, out_features=128, bias=True)
  (2): Linear(in_features=128, out_features=10, bias=True)
)
Completion Model Sequential(
  (0): Flatten()
  (1): Linear(in_features=196, out_features=128, bias=True)
  (2): Linear(in_features=128, out_features=10, bias=True)
)
Average Attack Accuracy of Passive 0 (each epoch): 12.47%
Average Attack Accuracy of Passive 1 (each epoch): 25.03%
Average Attack Accuracy of Passive 2 (each epoch): 16.00%
Average Attack Accuracy of Passive 3 (each epoch): 16.44%
Attack Runtime: 10184:449:328 (ns)
Train set: Average loss: 1.6021, Accuracy: 53546/60000 (89.24%)

Attack Runtime: 0:0:621 (ns)
…
